…
ptimizer, metrics=[‘accuracy’])```</p><pre><code>WARNING:tensorflow:From /home/ma-user/anaconda3/envs/TensorFlow-1.13.1/lib/python3.6/site-packages/tensorflow/python/framework/op_def_library.py:263: colocate_with (from tensorflow.python.framework.ops) is deprecated and will be removed in a future version.Instructions for updating:Colocations handled automatically by placer._________________________________________________________________Layer (type)                 Output Shape              Param #   =================================================================input_1 (InputLayer)         (None, 224, 224, 3)       0         _________________________________________________________________block1_conv1 (Conv2D)        (None, 224, 224, 64)      1792      _________________________________________________________________block1_conv2 (Conv2D)        (None, 224, 224, 64)      36928     _________________________________________________________________block1_pool (MaxPooling2D)   (None, 112, 112, 64)      0         _________________________________________________________________block2_conv1 (Conv2D)        (None, 112, 112, 128)     73856     _________________________________________________________________block2_conv2 (Conv2D)        (None, 112, 112, 128)     147584    _________________________________________________________________block2_pool (MaxPooling2D)   (None, 56, 56, 128)       0         _________________________________________________________________block3_conv1 (Conv2D)        (None, 56, 56, 256)       295168    _________________________________________________________________block3_conv2 (Conv2D)        (None, 56, 56, 256)       590080    _________________________________________________________________block3_conv3 (Conv2D)        (None, 56, 56, 256)       590080    _________________________________________________________________block3_pool (MaxPooling2D)   (None, 28, 28, 256)       0         _________________________________________________________________block4_conv1 (Conv2D)        (None, 28, 28, 512)       1180160   _________________________________________________________________block4_conv2 (Conv2D)        (None, 28, 28, 512)       2359808   _________________________________________________________________block4_conv3 (Conv2D)        (None, 28, 28, 512)       2359808   _________________________________________________________________block4_pool (MaxPooling2D)   (None, 14, 14, 512)       0         _________________________________________________________________block5_conv1 (Conv2D)        (None, 14, 14, 512)       2359808   _________________________________________________________________block5_conv2 (Conv2D)        (None, 14, 14, 512)       2359808   _________________________________________________________________block5_conv3 (Conv2D)        (None, 14, 14, 512)       2359808   _________________________________________________________________block5_pool (MaxPooling2D)   (None, 7, 7, 512)         0         _________________________________________________________________global_average_pooling2d_1 ( (None, 512)               0         _________________________________________________________________dense_1 (Dense)              (None, 1)                 513       =================================================================Total params: 14,715,201Trainable params: 14,715,201Non-trainable params: 0_________________________________________________________________</code></pre><pre><code>/home/ma-user/anaconda3/envs/TensorFlow-1.13.1/lib/python3.6/site-packages/ipykernel_launcher.py:16: UserWarning: Update your `Model` call to the Keras 2 API: `Mode
…
